model/model.pth (torch, 82568 bytes, 5 tensors)

lstm.weight_ih_l0 f4 [256, 12]
-0.010938002 0.33436957 -0.135945 -0.09762248 0.54561186 -0.28324986 0.046013556 0.35750875
-0.051432073 0.60076344 0.14152883 -0.2573853 -1.0177907 -0.5290862 0.8366397 -0.86125565
1.1307582 -0.0067323693 -0.3382612 -0.38021818 -0.04222837 -0.57665557 0.36465985 0.3688542
0.22820196 0.098149285 -0.062061362 -0.042342983 0.085786045 -0.39348674 0.14975981 0.55850565
0.19431996 0.681014 -0.67075217 -0.13986802 0.030092629 0.008014868 -0.048389357 0.14062591
-0.22823113 0.3318497 -0.7495098 -0.21355878 0.07787655 -0.6970908 0.1814739 -0.02494803
-0.3707723 -0.06340674 0.16675264 0.024587 0.47506768 0.33885252 -0.065156735 -0.53549457
0.0053251735 -0.50101715 -0.23929232 0.0512744 -0.65361536 -0.41041878 0.44299144 -0.020492023
0.26921406 -0.69111806 -0.12237561 -0.070189975 0.1017545 -0.2619907 0.39234424 0.12765303
-0.05610506 -0.13420156 -0.016791245 0.35252845 0.12554665 0.07832977 0.1812784 -0.3824494
0.4095152 -0.11464617 0.14585675 -0.15737271 0.3246949 0.2335952 -0.57415944 0.5446875
-0.80221254 -0.7405788 0.062886864 0.021692751 -0.12749903 -0.24993917 0.18249801 -0.08654396
0.31574607 0.7387747 -0.75275034 0.5707818 0.92764384 -0.4534926 -0.25051156 -0.19458312
0.18144354 0.09684902 -0.0443433 -0.15668206 -0.566773 -0.10521359 0.37181792 -0.14426133
-1.0265787 -0.619626 -0.07694078 -0.057803437 0.080516584 0.081211224 -0.06438297 -0.2827116
0.17082205 -0.16347519 0.32287323 -0.37468046 0.041207317 -0.18819673 0.029523142 0.212696
0.2522489 0.3129475 -0.25799176 0.5808315 -0.027849222 0.26256144 -0.024453154 -0.119289316
0.26644892 0.7130625 0.042592444 -0.17452385 0.061572466 -0.27342656 0.08747774 -0.26784652
0.46831053 -0.39121157 0.030856289 0.39419925 -0.37164778 0.4039637 0.11211028 0.30816948
-0.009442954 -0.6446139 -0.59683007 0.5097137 0.039788637 -0.29511487 0.110416256 -0.28176236
0.20446566 -0.70087165 0.75267994 0.26712734 0.14373656 0.29632062 -0.7389064 -0.012548753
0.084025465 0.6992906 -0.4979738 -0.06847906 1.3328067 -0.24677324 -0.3974539 -0.12432447
0.1599911 -0.19704399 -0.38514924 -0.50059694 0.9954945 0.033130053 -0.6099411 0.06674197
0.5012461 -0.110661104 0.08330732 -0.13328905 -0.6326464 0.09164523 0.28906405 -0.37499103
-0.103650846 -0.16808568 0.072402366 0.41450328 -0.39350158 0.065034404 -0.0036987776 -0.20862275
0.56127375 -0.13989983 -0.24581194 -0.15642837 0.49639824 -0.53411984 0.08597101 0.11533283
-0.2214156 0.97087 -0.32819253 0.2886974 5.4269505e-05 0.3334961 0.17868933 0.21845326
0.061103083 0.24075052 0.13793604 -0.5363023 -0.336432 -0.5665605 -0.075954795 -0.036158137
-0.23321575 -0.3006033 0.18545103 -0.4634546 0.16449635 0.12736739 -0.06468621 0.10383667
-0.65868515 0.59286803 -0.3019987 -0.24549118 0.29300222 -0.2360427 -0.1053907 -0.10437802
-0.08777747 -1.0406395 0.82122064 -0.0880627 -0.54023004 0.63048345 -0.066504315 -0.15243587
-0.0029273739 -0.6267193 -0.086072765 -0.53210396 0.086418286 0.6470988 -0.71760166 0.56464756
00000000: 4e35 33bc 7d32 ab3e 2b35 0bbe 4bee c7bd
00000010: 38ad 0b3f 2006 91be b678 3c3d 630b b73e
00000020: 70aa 52bd a2cb 193f efec 103e 02c8 83be
00000030: f746 82bf 3172 07bf 052e 563f 407b 5cbf
00000040: afbc 903f 359b dcbb 9230 adbe f5ab c2be
00000050: a8f7 2cbd b39f 13bf b2b4 ba3e 75da bc3e
00000060: c6ad 693e 7e02 c93d 0e34 7ebd d66f 2dbd
00000070: 98b0 af3d 1877 c9be a35a 193e 3afa 0e3f
00000080: d0fb 463e ef56 2e3f 6ab6 2bbf 9039 0fbe
00000090: d184 f63c cb50 033c eb33 46bd 3d00 103e
000000a0: 6cb5 69be 34e8 a93e e0df 3fbf 27af 5abe
000000b0: be7d 9f3d 8b74 32bf 4bd4 393e d05f ccbc
000000c0: ded5 bdbe 65db 81bd 34c1 2a3e ad6a c93c
000000d0: 123c f33e 147e ad3e e570 85bd 2c16 09bf
000000e0: cb7e ae3b a942 00bf 0c09 75be 1b05 523d
000000f0: 5653 27bf 6922 d2be c6cf e23e e3de a7bc
00000100: 6dd6 893e 1ded 30bf 10a0 fabd c3bf 8fbd
00000110: aa64 d03d a523 86be 58e1 c83e 7ab7 023e
00000120: 6bce 65bd 226c 09be cb8d 89bc 9c7e b43e
00000130: 4d8f 003e 5c6b a03d 0ba1 393e 68d0 c3be
00000140: faab d13e 9ccb eabd 795b 153e 5026 21be
00000150: 693e a63e 9533 6f3e 1dfc 12bf a470 0b3f
00000160: cd5d 4dbf 9296 3dbf d4ca 803d ffb4 b13c
00000170: 1b8f 02be 0ef0 7fbe c2e0 3a3e f63d b1bd
00000180: 78a9 a13e 5720 3d3f 3fb4 40bf c21e 123f
00000190: 117a 6d3f 2f30 e8be 0d43 80be cc40 47be
000001a0: 56cc 393e c758 c63d 52a1 35bd 4371 20be
000001b0: 0918 11bf 397a d7bd eb5e be3e 3eb9 13be
000001c0: ee66 83bf cf9f 1ebf 2193 9dbd 4cc3 6cbd
000001d0: e1e5 a43d 1252 a63d 38db 83bd 93bf 90be
000001e0: faeb 2e3e 0a66 27be a44f a53e 1ed6 bfbe
000001f0: 01c9 283d a5b6 40be 84da f13c fbcc 593e
00000200: c526 813e a83a a03e 7f17 84be 60b1 143f
00000210: 0d24 e4bc 746e 863e fb51 c8bc f54d f4bd
00000220: fe6b 883e 448b 363f 6a75 2e3d 61b6 32be
00000230: 6933 7c3d 91fe 8bbe 8827 b33d 2e23 89be
00000240: 66c6 ef3e e24c c8be 54c6 fc3c 7cd4 c93e
00000250: 9e48 bebe 55d4 ce3e 139a e53d 64c8 9d3e
00000260: 9fb6 1abc 6b05 25bf dbc9 18bf 997c 023f
00000270: 69f9 223d 4c19 97be eb21 e23d 2843 90be
00000280: 725f 513e 536c 33bf a2af 403f eac4 883e
00000290: ad2f 133e 56b7 973e f828 3dbf 4999 4dbc
000002a0: 8b15 ac3d b504 333f 6cf6 febe c03e 8cbd
000002b0: 6999 aa3f 20b2 7cbe 147f cbbe d49d febd
000002c0: b5d4 233e e6c5 49be 4832 c5be 1f27 00bf
000002d0: bad8 7e3f 61b3 073d 1a25 1cbf 04b0 883d
000002e0: aa51 003f 4aa2 e2bd 079d aa3d ed7c 08be
000002f0: 1df5 21bf 7fb0 bb3d 3400 943e d3fe bfbe
00000300: e546 d4bd a71e 2cbe b147 943d c639 d43e
00000310: 0a79 c9be c230 853d 3167 72bb 34a1 55be
00000320: a3af 0f3f e741 0fbe 20b6 7bbe c22e 20be
00000330: e927 fe3e 14bc 08bf 9211 b03d 9e33 ec3d
00000340: c5ba 62be f08a 783f da08 a8be 25d0 933e
00000350: 709f 6338 00c0 aa3e 56fa 363e 36b2 5f3e
00000360: 3a47 7a3d 4e87 763e 1b3f 0d3e 1c4b 09bf
00000370: d140 acbe 1c0a 11bf 308e 9bbd 8e1a 14bd
00000380: 1cd0 6ebe ade8 99be e0e6 3d3e ec49 edbe
00000390: bb71 283e 996c 023e 347a 84bd 52a8 d43d
000003a0: 979f 28bf 33c6 173f 939f 9abe 0a62 7bbe
000003b0: 6304 963e 2db5 71be 14d7 d7bd 25c4 d5bd
000003c0: adc4 b3bd ad33 85bf 843b 523f 385a b4bd
000003d0: 844c 0abf 5d67 213f 6a33 88bd 2618 1cbe
000003e0: 2fd9 3fbb ad70 20bf eb46 b0bd f737 08bf
000003f0: 12fc b03d 44a8 253f beb4 37bf be8c 103f

lstm.weight_hh_l0 f4 [256, 64]
0.04474543 0.09754121 -0.2323592 -0.060735103 -0.10758842 -0.66625875 -0.3092084 -0.5108688
-0.3124581 -0.28302684 -0.04697018 0.024541723 0.20100088 0.23989202 -0.058971845 -0.07867964
0.09216976 -0.04511555 0.05194339 -0.13037671 0.18987367 -0.020059263 -0.14309077 0.161873
0.21085978 -0.32845253 0.15752059 0.39997602 -0.1808589 -0.00036563183 -0.24086465 -0.1273716
-0.07617833 0.18250003 -0.13413666 -0.1737928 -0.004312362 0.14316484 -0.30348438 -0.24328081
-0.06822775 -0.2842065 -0.38784316 -0.17065676 0.3123145 -0.013579032 -0.022387614 -0.36389267
0.13115498 -0.39599288 0.22033517 -0.06393075 0.02393608 -0.48644242 0.16451216 -0.114358075
0.039066456 0.24021156 0.39016742 0.24364369 0.025874088 0.17936671 0.017348886 -0.11113789
0.39675382 -0.18039547 0.33178523 -0.36812237 0.042802237 0.031716492 0.27934626 0.057066362
-0.26152015 -0.2862064 -0.052753735 -0.00044100458 -0.010293224 0.39598578 -0.27999827 -0.069284864
0.08120576 -0.104192324 0.25154942 -0.19519047 0.16513212 -0.008598919 -0.5895469 -0.17372411
-0.20079535 -0.011097134 0.08934357 -0.5478213 0.2152687 0.224154 0.16989401 -0.29163983
-0.04861588 0.18958099 0.19008517 0.6221022 0.10273165 0.15017816 0.49335217 0.25871563
-0.034310795 -0.54179114 0.6684577 -0.083971284 -0.21028861 0.38189855 -0.13671993 0.023086507
-0.38285628 -0.26843047 0.26802146 0.10967814 -0.16541009 0.2573516 0.3889377 0.03488864
-0.34474903 0.14259844 0.41994223 0.24705878 -0.095942765 -0.14918086 -0.1659499 -0.11139221
0.08562707 -0.0024233058 0.0004771982 0.07866439 -0.2566158 -0.108734965 -0.15781678 -0.20622301
-0.046899267 0.21134153 0.051710945 -0.019453341 0.19758096 0.011181094 -0.08365307 -0.10211557
0.18074432 0.32551163 -0.0969119 0.025410932 -0.20304407 -0.10521643 0.021142716 0.24360186
0.20011754 0.18797228 -0.011358488 0.05650144 -0.11351686 -0.15460661 0.13765527 0.06782541
-0.13518752 0.2474116 0.013436615 0.1122298 0.016402869 -0.22122534 0.21656123 -0.25747782
0.33959585 -0.09488983 -0.17121853 0.11546147 0.2819082 -0.07292517 -0.23854612 0.0393219
-0.19810851 0.0639168 -0.040153917 0.42735648 -0.03798529 -0.13603315 -0.23048416 0.17963699
-0.32543904 0.10191688 -0.2377058 0.031463027 0.21375594 0.20352784 0.0028920693 -0.004017481
-0.07912241 -0.059521724 0.31439558 -0.0071023675 -0.1886172 0.0037458143 -0.16824554 0.06332341
-0.29425448 0.101975925 0.017790968 -0.17151578 0.23070194 -0.08419388 -0.12758572 0.2394749
-0.0028350973 0.15591802 -0.15196238 -0.01703095 0.06353531 -0.10179108 0.2949669 0.20175725
0.06797365 -0.13458794 0.40423065 -0.122929685 0.26643157 -0.112608485 0.040809993 0.06446005
0.06464192 0.18991368 0.16236849 -0.18181874 -0.32449284 -0.15828721 -0.479585 0.005556924
0.13674761 -0.19163072 0.021674238 0.4001761 0.18951406 -0.16182816 -0.33422214 0.16946054
0.17505756 -0.08626424 -0.093941376 -0.11705727 -0.09828427 -0.0841516 0.09018191 0.016827185
0.29635108 0.06683629 -0.19224204 0.07640481 -0.0358865 -0.17214997 0.042634506 0.09519505
00000000: fc46 373d b0c3 c73d 92ef 6dbe 5fc5 78bd
00000010: 5157 dcbd ef8f 2abf 9050 9ebe 4cc8 02bf
00000020: 82fa 9fbe e5e8 90be ce63 40bd b90b c93c
00000030: 2dd3 4d3e 41a6 753e 768c 71bd cb22 a1bd
00000040: 80c3 bc3d 15cb 38bd 98c2 543d 7981 05be
00000050: 3e6e 423e 5353 a4bc 6386 12be 09c2 253e
00000060: a0eb 573e ee2a a8be 144d 213e a8c9 cc3e
00000070: 1333 39be 46b2 bfb9 39a5 76be b36d 02be
00000080: 6203 9cbd 4ae1 3a3e 1f5b 09be bdf6 31be
00000090: b74e 8dbb ce99 123e 4e62 9bbe 9b1e 79be
000000a0: feba 8bbd 8483 91be 6193 c6be a5c0 2ebe
000000b0: b0e7 9f3e 977a 5ebc 3b66 b7bc 2450 babe
000000c0: 7e4d 063e 94bf cabe 8b9f 613e 20ee 82bd
000000d0: 9915 c43c fb0e f9be e075 283e 9134 eabd
000000e0: 2604 203d 05fa 753e 06c4 c73e bb7d 793e
000000f0: e5f5 d33c e8ab 373e 401f 8e3c 439c e3bd
00000100: 5123 cb3e 97b9 38be c1df a93e 897a bcbe
00000110: 6651 2f3d 27e9 013d 7906 8f3e 6bbe 693d
00000120: f8e5 85be a589 92be 4d14 58bd a236 e7b9
00000130: e9a4 28bc a6be ca3e ef5b 8fbe 39e5 8dbd
00000140: 354f a63d c962 d5bd 16cb 803e 03e0 47be
00000150: 6518 293e 7be2 0cbc 8cec 16bf bce4 31be
00000160: 4c9d 4dbe c1d0 35bc c3f9 b63d 043e 0cbf
00000170: 666f 5c3e a088 653e b2f8 2d3e d151 95be
00000180: 7221 47bd 8521 423e b0a5 423e 1742 1f3f
00000190: f964 d23d 4ec8 193e a898 fc3e 6076 843e
000001a0: 7a89 0cbd d3b2 0abf 0b20 2b3f 23f9 abbd
000001b0: e655 57be 3588 c33e 4f00 0cbe ea1f bd3c
000001c0: bd05 c4be b86f 89be 1c3a 893e ef9e e03d
000001d0: 4361 29be 97c3 833e d822 c73e 64e7 0e3d
000001e0: f282 b0be 5305 123e ab02 d73e fafc 7c3e
000001f0: a47d c4bd dec2 18be c5ee 29be 9921 e4bd
00000200: 3f5d af3d 53d0 1ebb 7530 fa39 cc1a a13d
00000210: 2563 83be 70b0 debd b99a 21be 202c 53be
00000220: 7219 40bd ea69 583e dbce 533d 9d5c 9fbc
00000230: aa52 4a3e e830 373c 4d52 abbd f821 d1bd
00000240: 0a15 393e 76a9 a63e bf79 c6bd 962a d03c
00000250: c9ea 4fbe b67b d7bd 7d33 ad3c c472 793e
00000260: 9deb 4c3e ce7b 403e f418 3abc 0e6e 673d
00000270: 877b e8bd 3251 1ebe 81f5 0c3e 0ce8 8a3d
00000280: 996e 0abe 7759 7d3e 3f25 5c3c bdd8 e53d
00000290: 4f5f 863c e588 62be 3ac2 5d3e 22d4 83be
000002a0: 82df ad3e 9955 c2bd e953 2fbe 1077 ec3d
000002b0: 4656 903e cb59 95bd 6f45 74be 0010 213d
000002c0: f5dc 4abe d0e6 823d 6f78 24bd 78ce da3e
000002d0: 7796 1bbd 464c 0bbe 0a04 6cbe c2f2 373e
000002e0: f29f a6be ccb9 d03d 2669 73be 60df 003d
000002f0: d6e2 5a3e 9a69 503e df88 3d3b 13a5 83bb
00000300: ee0a a2bd 0dcd 73bd 75f8 a03e faba e8bb
00000310: de24 41be 567c 753b 8f48 2cbe b4af 813d
00000320: 86a8 96be c1d8 d03d 5dbe 913c d5a1 2fbe
00000330: 213d 6c3e d76d acbd d5a5 02be e838 753e
00000340: 0acd 39bb f9a8 1f3e 079c 1bbe 7e84 8bbc
00000350: cd1e 823d d777 d0bd e705 973e 7499 4e3e
00000360: c535 8b3d 6cd1 09be 52f7 ce3e 8fc2 fbbd
00000370: b869 883e 479f e6bd 6128 273d a103 843d
00000380: fc62 843d bb78 423e ed43 263e b12e 3abe
00000390: ed23 a6be 0b16 22be 2a8c f5be db16 b63b
000003a0: 9107 0c3e d83a 44be 2c8e b13c e2e3 cc3e
000003b0: f90f 423e 48b6 25be 2a1f abbe 1087 2d3e
000003c0: 4a42 333e 4eab b0bd 5664 c0bd b9bb efbd
000003d0: 4349 c9bd ad57 acbd 4bb1 b83d 2ad9 893c
000003e0: 54bb 973e 77e1 883d 19db 44be 207a 9c3d
000003f0: b9fd 12bd 1548 30be 85a1 2e3d 9ff5 c23d

lstm.bias_ih_l0 f4 [256]
0.08787411 0.017629258 0.007956496 -0.02479294 0.020333465 -0.23369616 -0.26511675 0.06247201
-0.092216074 -0.20188923 0.11262358 0.07170217 -0.18335888 0.021981508 -0.054173518 0.06388702
-0.03937645 -0.053823646 0.050109357 -0.09471654 -0.054059688 -0.028251825 -0.07572877 0.11759957
0.05290079 0.1310074 -0.14166778 -0.0006237443 0.10497209 0.102875836 0.15338127 0.19925742
0.28672373 -0.07329452 0.0854407 -0.20149204 -0.06991069 -0.050648615 -0.10906788 0.01804189
-0.071231976 -0.06441597 0.11327519 -0.23372349 0.07596596 -0.120163046 -0.11945782 -0.042564157
-0.23574531 -0.115796536 -0.17116974 -0.11484742 0.06663892 -0.3336086 -0.13445453 -0.25430357
-0.19698066 -0.1787718 -0.052464087 0.012714085 -0.087772 0.023422265 0.123560585 -0.07556879
0.16000773 0.19325905 0.12681398 -0.008449588 0.09973794 0.3726179 0.4883635 0.13822553
0.35522106 0.28500962 0.18579726 0.23172778 0.060835242 0.28748736 0.13500154 0.2352601
0.08132612 0.1835757 0.3416317 0.31245914 0.1583834 0.05179305 0.10313119 0.15101889
0.19983211 0.14850482 0.01200241 0.048467316 0.18999459 0.34357947 0.28529134 0.5393946
0.22111662 0.08522843 0.27962664 0.23203477 0.087382354 0.112814374 0.1950609 0.23900764
0.2318685 0.16671154 0.25193292 0.24324831 0.20825621 -0.01760604 0.3596236 0.25453934
0.03583943 0.22205214 0.060273968 0.10145436 0.012876522 0.22334735 0.2529573 0.15803096
0.4962341 0.15415712 0.03185667 0.16655265 0.03898444 0.60180074 0.37145844 0.18497543
-0.104236744 -0.027716616 -0.11903083 -0.111428514 0.094796665 -0.16741802 0.13320409 -0.068552665
0.058146615 0.004974184 0.21923554 -0.028684195 -0.090679474 -0.053771764 -0.16160743 -0.10836986
0.0868743 0.12494589 0.1634693 0.017469855 0.02577654 0.08595605 0.13400951 -0.20823884
-0.2958995 -0.045744505 -0.04930907 0.15440692 -0.014143921 0.18503793 -0.2152306 -0.10180268
0.010192348 -0.075161114 -0.22725897 -0.0080635995 -0.05547495 0.07891672 0.020922715 0.046295874
-0.15579508 0.088356785 -0.06969352 0.04580691 -0.14516276 0.09730014 0.14018832 0.025796222
0.022149721 0.15861435 0.04000252 -0.111821644 -0.04924863 0.0028636693 0.21512504 0.12299762
-0.045344435 -0.044999506 0.13243285 -0.01325354 0.0014180626 0.16936482 0.036462396 -0.14510751
0.3164974 0.22538404 0.21133722 0.06479022 0.15825333 -0.0017263864 0.118999876 0.13522558
-0.0016041372 0.119654275 0.1813413 0.008700376 0.00039564466 -0.05800113 0.27321324 0.08396112
0.19847706 0.08799365 -0.047106635 0.07819357 0.011464017 0.021723544 0.17496797 0.21862742
0.19874817 -0.02597362 0.026080547 0.062071986 0.06641029 0.24638495 0.042453643 -0.13959956
0.04356492 0.20967038 0.099365294 0.1575862 0.19088386 0.16427688 0.02699895 -0.02053305
0.036675964 0.019398661 0.00600024 0.123386286 0.092847146 0.19849835 0.053016435 0.020738102
-0.0038439545 0.2206884 0.024460882 -0.04711929 0.14926878 0.062493518 0.07176033 0.019946184
-0.17377006 0.111654006 0.030788446 0.19549091 0.067732975 0.09794323 0.012054645 0.024760703
00000000: 57f7 b33d 3c6b 903c f75b 023c 901a cbbc
00000010: 5e92 a63c 0c4e 6fbe 62bd 87be a6e2 7f3d
00000020: c8db bcbd 0dbc 4ebe 31a7 e63d 96d8 923d
00000030: 6ec2 3bbe 9012 b43c 0de5 5dbd 33d7 823d
00000040: 3349 21bd 2f76 5cbd 783f 4d3d bffa c1bd
00000050: b16d 5dbd 5f70 e7bc af17 9bbd 0bd8 f03d
00000060: 80ae 583d ce26 063e 5c11 11be c582 23ba
00000070: 9bfb d63d 91b0 d23d fb0f 1d3e 230a 4c3e
00000080: 74cd 923e 701b 96bd 89fb ae3d ee53 4ebe
00000090: 562d 8fbd ec74 4fbd fb5e dfbd 96cc 933c
000000a0: 12e2 91bd 85ec 83bd d3fc e73d 3655 6fbe
000000b0: 0b94 9b3d 0b18 f6bd 4da6 f4bd c157 2ebd
000000c0: 3867 71be bc26 edbd 1f47 2fbe 2035 ebbd
000000d0: fc79 883d bfce aabe 73ae 09be 1434 82be
000000e0: 4cb5 49be f40f 37be 95e4 56bd bd4e 503c
000000f0: cec1 b3bd 0de0 bf3c 550d fd3d cfc3 9abd
00000100: 11d9 233e b3e5 453e 86db 013e 2470 0abc
00000110: 6843 cc3d c6c7 be3e c80a fa3e fe8a 0d3e
00000120: 89df b53e c8ec 913e a341 3e3e 0c4a 6d3e
00000130: 602e 793d 8b31 933e d83d 0a3e 06e8 703e
00000140: 4f8e a63d 45fb 3b3e 5aea ae3e a5fa 9f3e
00000150: 422f 223e f324 543d 7236 d33d b2a4 1a3e
00000160: caa0 4c3e a611 183e c2a5 443c aa85 463d
00000170: f18d 423e a6e9 af3e b511 923e c415 0a3f
00000180: 656c 623e 3e8c ae3d 392b 8f3e 869a 6d3e
00000190: 85f5 b23d 390b e73d 0bbe 473e 6bbe 743e
000001a0: f06e 6d3e 6eb6 2a3e 5afd 803e 1616 793e
000001b0: 1e41 553e 8b3a 90bc 9620 b83e fb52 823e
000001c0: 5ecc 123d a361 633e d6e1 763d 4ec7 cf3d
000001d0: 0cf8 523c 2bb5 643e 9f83 813e ded2 213e
000001e0: 6512 fe3e 5ddb 1d3e 247c 023d c78c 2a3e
000001f0: 26ae 1f3d 9d0f 1a3f cd2f be3e 336a 3d3e
00000200: 137a d5bd f50d e3bc 70c6 f3bd a234 e4bd
00000210: c124 c23d a16f 2bbe a766 083e 5765 8cbd
00000220: 252b 6e3d 7bfe a23b 487f 603e 1efb eabc
00000230: 29b6 b9bd c83f 5cbd 6b7c 25be 04f1 ddbd
00000240: 27eb b13d a1e3 ff3d 7f64 273e f11c 8f3c
00000250: 5329 d33c ba09 b03d ca39 093e 903c 55be
00000260: 2480 97be 975e 3bbd 4ff8 49bd d91c 1e3e
00000270: e8bb 67bc 957a 3d3e 6965 5cbe ec7d d0bd
00000280: cefd 263c 12ee 99bd 93b6 68be 301d 04bc
00000290: b339 63bd 179f a13d 1d66 ab3c bea0 3d3d
000002a0: bf88 1fbe 67f4 b43d 7abb 8ebd 07a0 3b3d
000002b0: 8ca5 14be 4c45 c73d 878d 0f3e 9952 d33c
000002c0: 5573 b53c cd6b 223e afd9 233d bf02 e5bd
000002d0: eeb8 49bd 66ac 3b3b bd49 5c3e 2de6 fb3d
000002e0: 16bb 39bd 6751 38bd 7a9c 073e 6025 59bc
000002f0: 49de b93a f96d 2d3e 9859 153d 1097 14be
00000300: f20b a23e 13cb 663e c968 583e bcb0 843d
00000310: 290d 223e ea47 e2ba 35b6 f33d 9378 0a3e
00000320: ea41 d2ba 4d0d f53d 89b1 393e 068c 0e3c
00000330: 876e cf39 9892 6dbd 9be2 8b3e cff3 ab3d
00000340: 923d 4b3e 0436 b43d e3f2 40bd f323 a03d
00000350: 93d3 3b3c 93f5 b13c ce2a 333e dedf 5f3e
00000360: a484 4b3e a1c6 d4bc dfa6 d53c 323f 7e3d
00000370: 1e02 883d 564c 7c3e dfe3 2d3d 30f3 0ebe
00000380: 2171 323d d5b3 563e 0880 cb3d 475e 213e
00000390: 0f77 433e 3338 283e e72c dd3c ed34 a8bc
000003a0: 8939 163d f1e9 9e3c a99d c43b f3b1 fc3d
000003b0: a526 be3d 2743 4b3e c327 593d f4e2 a93c
000003c0: dbea 7bbb 24fc 613e 3062 c83c 2800 41bd
000003d0: ead9 183e 34f9 7f3d 14f7 923d 2e66 a33c
000003e0: c7f0 31be dbaa e43d 0d38 fc3c c52e 483e
000003f0: 96b7 8a3d 7696 c83d d980 453c f5d6 ca3c

lstm.bias_hh_l0 f4 [256]
0.084617645 0.012668815 0.0042955284 -0.03328999 0.031303454 -0.22302373 -0.26371527 0.058401354
-0.09137622 -0.20662324 0.11306944 0.07322357 -0.17604448 0.022045113 -0.050310314 0.06627461
-0.043963257 -0.04429238 0.045085754 -0.09263767 -0.0606128 -0.030420974 -0.0662679 0.11708412
0.060975038 0.12572843 -0.14267801 -0.009879782 0.11109966 0.09976418 0.14934085 0.20421946
0.27593854 -0.08163143 0.08221175 -0.2044054 -0.080530696 -0.045996107 -0.121865116 0.01852985
-0.070433676 -0.0693168 0.111128956 -0.22178218 0.088171065 -0.12491998 -0.11744854 -0.041667387
-0.24370705 -0.11793606 -0.17846477 -0.11408094 0.06222116 -0.3319972 -0.13621001 -0.25455272
-0.19618171 -0.18443234 -0.054803967 0.0033896687 -0.0865089 0.0199282 0.12019433 -0.07753487
0.15308736 0.19041957 0.12937239 -0.007825418 0.10264531 0.38158417 0.49585772 0.14256403
0.35554898 0.28744626 0.18012686 0.2280757 0.047592003 0.288512 0.12666325 0.23901579
0.081556015 0.1782428 0.34018546 0.31905705 0.16031034 0.05215229 0.10942843 0.15138774
0.20563814 0.14607441 0.009751292 0.051989753 0.19100605 0.34761068 0.28438875 0.53280514
0.22187051 0.079139754 0.28205165 0.2461306 0.073153205 0.11096021 0.20107107 0.2468214
0.23049642 0.1564592 0.25251505 0.25444078 0.21561551 -0.012535694 0.35991827 0.24516328
0.029677471 0.21453677 0.06796234 0.10194166 0.01794486 0.23484519 0.2575312 0.16122241
0.50696737 0.14312443 0.023523085 0.16383612 0.03860635 0.6138057 0.36807314 0.19536962
-0.09773091 -0.034887843 -0.1293273 -0.111685276 0.095584184 -0.16147944 0.12805012 -0.06661275
0.055967286 0.009011378 0.22651681 -0.028604856 -0.09036627 -0.049360454 -0.15640317 -0.116191015
0.09467516 0.11716426 0.1708589 0.018588077 0.02972838 0.08844165 0.13007054 -0.20439494
-0.29110673 -0.0373231 -0.058149543 0.16155979 -0.0067486446 0.19007939 -0.20406456 -0.09442708
0.007001129 -0.07845335 -0.22702344 -0.008824577 -0.047963254 0.06891168 0.023678742 0.053176943
-0.15829663 0.08740743 -0.08368713 0.036798432 -0.15678121 0.093276955 0.12659846 0.025254102
0.019453872 0.15829363 0.0321661 -0.11109451 -0.041319046 0.009472131 0.22528476 0.12704045
-0.046549924 -0.041331276 0.13342716 -0.011606141 -0.0040454124 0.17013574 0.029310135 -0.14573376
0.3110873 0.21576902 0.20445207 0.06919689 0.15949386 -0.0103793815 0.11154439 0.14510444
-0.008513144 0.11263854 0.18304023 0.015569004 0.0012626521 -0.065653786 0.26204008 0.0794112
0.18679789 0.091735 -0.0369372 0.073866345 0.011335809 0.022042507 0.16292961 0.21786337
0.19462658 -0.038287427 0.03187924 0.06833168 0.0626609 0.24649243 0.040928017 -0.13897692
0.041139986 0.21042193 0.102231085 0.14582919 0.18511455 0.15911013 0.032097477 -0.02398876
0.04301361 0.010757019 -0.0044622435 0.11648223 0.08589037 0.19433816 0.047766432 0.020166261
-0.0024521193 0.21831912 0.024412883 -0.048552927 0.14666247 0.06722374 0.06181867 0.017035916
-0.17413518 0.112490125 0.023526864 0.19584696 0.06265561 0.08795028 0.013618149 0.030896595
00000000: 044c ad3d dd90 4f3c 81c1 8c3b 165b 08bd
00000010: 0d38 003d 5560 64be b005 87be 4236 6f3d
00000020: 7523 bbbd 0b95 53be f390 e73d 3df6 953d
00000030: 0145 34be f497 b43c 3012 4ebd fcba 873d
00000040: d112 34bd ed6b 35bd d7ab 383d d2b8 bdbd
00000050: 2145 78bd 6835 f9bc 77b7 87bd cdc9 ef3d
00000060: f6c0 793d f4be 003e 2f1a 12be cfde 21bc
00000070: 3888 e33d 2a51 cc3d cfec 183e e81e 513e
00000080: d147 8d3e 612e a7bd a25e a83d a64f 51be
00000090: 47ed a4bd 6a66 3cbd 6b94 f9bd e9cb 973c
000000a0: 883f 90bd f7f5 8dbd 9497 e33d de1a 63be
000000b0: 0893 b43d 0cd6 ffbd dc88 f0bd 6cab 2abd
000000c0: 578e 79be 7688 f1bd 78bf 36be 45a3 e9bd
000000d0: 9ddb 7e3d 89fb a9be a37a 0bbe bc54 82be
000000e0: dce3 48be d5db 3cbe 207a 60bd 3425 5e3b
000000f0: 942b b1bd 7740 a33c 7228 f63d 9aca 9ebd
00000100: efc2 1c3e 59fd 423e 327a 043e 2f36 00bc
00000110: b437 d23d 005f c33e 10e1 fd3e 4efc 113e
00000120: 840a b63e 282c 933e 2d73 383e ad8c 693e
00000130: d5ef 423d d8b7 933e 03b4 013e 8ec0 743e
00000140: d706 a73d 4885 363e ca2c ae3e 725b a33e
00000150: 6528 243e a49d 553d 031c e03d 6305 1b3e
00000160: ce92 523e 8894 153e e2c3 1f3c 35f3 543d
00000170: 1797 433e 07fa b13e 679b 913e eb65 083f
00000180: 0632 633e 0614 a23d 1369 903e a909 7c3e
00000190: 59d1 953d 1b3f e33d 93e5 4d3e c0be 7c3e
000001a0: 4107 6c3e d736 203e a749 813e 1046 823e
000001b0: 50ca 5c3e 8362 4dbc 3547 b83e 150c 7b3e
000001c0: 2b1e f33c 87af 5b3e d72f 8b3d cac6 d03d
000001d0: 1901 933c 427b 703e 21db 833e 7d17 253e
000001e0: 9dc8 013f 368f 123e 7cb3 c03c a8c4 273e
000001f0: b121 1e3d 5f22 1d3f 1574 bc3e f90e 483e
00000200: 2527 c8bd 8ee6 0ebd 606e 04be 40bb e4bd
00000210: a4c1 c33d de5a 25be 921f 033e 446c 88bd
00000220: f43d 653d 75a4 133c 06f4 673e bb54 eabc
00000230: f311 b9bd 302e 4abd 2728 20be 8ef5 edbd
00000240: 0de5 c13d d1f3 ef3d a3f5 2e3e 0646 983c
00000250: ee88 f33c e520 b53d 3631 053e e84c 51be
00000260: f10b 95be 1be0 18bd 372e 6ebd ee6f 253e
00000270: bc23 ddbb 2ca4 423e 4df6 50be fc62 c1bd
00000280: ba69 e53b 26ac a0bd d578 68be f594 10bc
00000290: 1e75 44bd 9121 8d3d ecf9 c13c 11d0 593d
000002a0: 8318 22be ab02 b33d 2864 abbd f4b9 163d
000002b0: 418b 20be fd07 bf3d 07a3 013e b1e1 ce3c
000002c0: ba5d 9f3c ba17 223e 9ac0 033d 8585 e3bd
000002d0: 293e 29bd ff30 1b3c 0cb1 663e e416 023e
000002e0: 22ab 3ebd fc4a 29bd 21a1 083e af27 3ebc
000002f0: 618f 84bb 1038 2e3e cf1b f03c 3b3b 15be
00000300: d646 9f3e 8ef2 5c3e e25b 513e 19b7 8d3d
00000310: 5c52 233e 480e 2abc 6371 e43d 4296 143e
00000320: b77a 0bbc 09af e63d e66e 3b3e 2315 7f3c
00000330: 937f a53a 7e75 86bd 1e2a 863e 57a2 a23d
00000340: f247 3f3e 8fdf bb3d 764b 17bd 3d47 973d
00000350: d4b9 393c 7d92 b43c 05d7 263e 9317 5f3e
00000360: 314c 473e 47d3 1cbd ce93 023d 7bf1 8b3d
00000370: 5c54 803d 8368 7c3e 23a4 273d f74f 0ebe
00000380: 6782 283d d978 573e 885e d13d 3f54 153e
00000390: ab8e 3d3e c4ed 223e a578 033d 1384 c4bc
000003a0: 0a2f 303d 353e 303c 0338 92bb 3c8e ee3d
000003b0: 4ae7 af3d 9500 473e bca6 433d b733 a53c
000003c0: bcb3 20bb 0c8f 5f3e 87fd c73c 6fdf 46bd
000003d0: b02e 163e 9aac 893d 9335 7d3d e88e 8b3c
000003e0: 7e50 32be 3961 e63d 69bb c03c 1b8c 483e
000003f0: 9651 803d 471f b43d a81e 5f3c db1a fd3c

fc.weight f4 [1, 64]
-0.8968182 1.4006968 1.1567632 0.76874125 -1.3067654 1.8603654 -0.21913093 -0.33564162
0.6017293 0.6629248 -0.012465515 0.018218804 0.73380816 0.42154962 2.7394187 1.5021337
0.994919 -0.87913793 -0.34323257 0.90393996 -0.7491443 -0.713558 0.5463863 2.4583414
0.3287973 0.52843606 -1.8073647 -1.786029 0.9491456 -0.93300205 1.0077287 0.6474226
0.6740049 1.6076319 0.6519836 0.42109227 -1.6521509 0.42958465 -0.5258633 -0.87476104
1.2940363 0.7591711 1.2452916 -0.33346453 1.6834054 -1.3199546 -1.3177136 0.9178495
0.33396104 1.4692183 -0.49978766 0.49004808 2.0696607 -0.09085389 -0.85052663 0.014832245
0.31679744 1.862213 -0.50976884 0.97315216 0.4653662 -0.5934783 -0.9274614 2.2891169
00000000: e195 65bf 084a b33f d110 943f 3acc 443f
00000010: 1744 a7bf 7420 ee3f dc63 60be 38d9 abbe
00000020: ee0a 1a3f 71b5 293f 293c 4cbc 9a3f 953c
00000030: dada 3b3f 5ad5 d73e a352 2f40 eb45 c03f
00000040: 03b3 7e3f 2f0f 61bf 2ebc afbe 9c68 673f
00000050: ecc7 3fbf bdab 36bf f9df 0b3f 7755 1d40
00000060: 1f58 a83e 9647 073f ba57 e7bf 999c e4bf
00000070: 35fb 723f 39d9 6ebf 41fd 803f 7dbd 253f
00000080: 968b 2c3f e2c6 cd3f 66e8 263f 6899 d73e
00000090: ae79 d3bf 85f2 db3e fa9e 06bf 57f0 5fbf
000000a0: fba2 a53f 0a59 423f b765 9f3f ddbb aabe
000000b0: d479 d73f 46f4 a8bf d7aa a8bf 2ff8 6a3f
000000c0: f1fc aa3e 580f bc3f 2be4 ffbe 95e7 fa3e
000000d0: 5275 0440 9b11 babd 1dbc 59bf f202 733c
000000e0: 4633 a23e ff5c ee3f 3680 02bf 8020 793f
000000f0: 7b44 ee3e 32ee 17bf 1c6e 6dbf e480 1240
