model/model.pth (torch, 82260 bytes, 5 tensors)

lstm.weight_ih_l0 f4 [256, 12]
0	0xbdc19a1f	-0.094532244
1	0xbdbaad7b	-0.0911512
2	0x3d0eb458	0.034839958
3	0xbe0b1f67	-0.13586198
4	0x3e02d3a9	0.12776054
5	0x3d877064	0.06613234
6	0x3d492d69	0.049115572
7	0xbddd4658	-0.10804433
8	0x3ced8a31	0.028996559
9	0xbdca0cbc	-0.0986571
10	0xbd238750	-0.039923966
11	0xbd058b15	-0.032603342
12	0x3d94b111	0.07260335
13	0x3c5bbd5b	0.013411845
14	0x3d4d87f8	0.050178498
15	0x3d2230fa	0.03959749
16	0x3dcbbc36	0.09948008
17	0xbdb42f3f	-0.08798074
18	0x3d5265d1	0.05136663
19	0x3dacd118	0.08438319
20	0xbd3e41a0	-0.046449304
21	0xbb00e4c1	-0.0019667598
22	0xbdaaf8d1	-0.08348239
23	0x3d4e9e53	0.05044396
24	0x3d42e8b5	0.047585208
25	0xbd885e63	-0.06658628
26	0xbdc89920	-0.09794831
27	0xbc17f8fb	-0.00927567
28	0xbd448a06	-0.047983192
29	0xbd66d869	-0.05635873
30	0x3da5e2d1	0.080999024
31	0x3e080bc2	0.13285735
32	0xbe03f66a	-0.12886968
33	0x3dc6ec9c	0.097130984
34	0x3d948ff4	0.072540194
35	0x3d76d18e	0.06025844
36	0xbd51516f	-0.05110305
37	0xbd35e44f	-0.044407185
38	0x3dbcd452	0.092201844
39	0xbdeff4ce	-0.11716615
40	0x3ddfe2b7	0.10931914
41	0xbd84057b	-0.06446358
42	0xbdef46cc	-0.11683425
43	0xbda56fb3	-0.080779456
44	0x3da0edf3	0.07857885
45	0x3db6486d	0.08900533
46	0x3d365116	0.044510923
47	0x3d80c320	0.06287217
48	0xbdbd1ce5	-0.09234027
49	0x3c8a4e48	0.01688303
50	0xbc996ca4	-0.018728562
51	0xbc7802c6	-0.01513738
52	0x3cf9a742	0.030475263
53	0xbdaf004c	-0.085449785
54	0xbd519f52	-0.05117733
55	0xba86d318	-0.00102863
56	0x3d654f28	0.055983692
57	0x3d0c7c4a	0.03429822
58	0xbd968ae6	-0.073507115
59	0x3d5142c4	0.051089063
60	0x3e06428d	0.13111325
61	0xbcebd80b	-0.02878954
62	0xbdab31c7	-0.08359104
63	0x3c7a8722	0.015291007
64	0x3dd98c78	0.106224954
65	0x3dbeb05d	0.093109824
66	0x3d9f9255	0.077915825
67	0x3bbedd83	0.005824746
68	0x3d6c12d9	0.057635162
69	0x3d65f3e3	0.05614079
70	0xbd0eadab	-0.03483359
71	0x3cf8a734	0.030353166
72	0xbd79f526	-0.061024807
73	0x3dc25832	0.09489478
74	0xbdb141f4	-0.08655158
75	0x3d15b4ae	0.036549263
76	0x3c2bf75a	0.010495985
77	0xbdfba1a0	-0.12286687
78	0xbd42e514	-0.047581747
79	0xbd65c3db	-0.056094985
80	0xbd0e1552	-0.0346883
81	0x3cea110b	0.02857258
82	0xbd66df85	-0.05636551
83	0x3d8fffca	0.0703121
84	0x3d1b4f19	0.03791723
85	0xbbd2e7e1	-0.0064363335
86	0x3d1b39a7	0.03789678
87	0xbe0a6cdd	-0.1351809
88	0x3cd84e9e	0.026404675
89	0xbd6c05f3	-0.05762286
90	0x3d44a731	0.04801101
91	0x3d97097d	0.073748566
92	0xbc9d49c9	-0.019200223
93	0xbdb98212	-0.09058012
94	0x3dea72fd	0.114477135
95	0xbd1a23f4	-0.037631944
96	0x3dac1f18	0.08404368
97	0x3d8cd543	0.06876614
98	0x3cae492c	0.021275125
99	0x3db5e364	0.08881262
100	0xbd9669c9	-0.07344396
101	0x3ddfaa29	0.10921127
102	0xbde29362	-0.11063267
103	0xbd2cda20	-0.042200208
104	0x3d84ced3	0.06484761
105	0x3d8ad6b5	0.06779233
106	0x3c939b78	0.01801847
107	0xbc0d976a	-0.008642057
108	0xbd09ae9a	-0.03361378
109	0x3dd22203	0.102603935
110	0xbddc6859	-0.1076209
111	0x3da176a6	0.078839585
112	0xbda58d76	-0.08083622
113	0xba24f779	-0.000629298
114	0xbcfe90f0	-0.031074971
115	0x3b80d99a	0.00393219
116	0x3d80aea3	0.06283309
117	0x3d4aedf8	0.04954335
118	0xbd763010	-0.06010443
119	0x390b8055	0.0001330388
120	0x3d849fd5	0.06475798
121	0xbd7771c9	-0.06041125
122	0x3d415a53	0.04720528
123	0xbdbc6606	-0.09199147
124	0x3cf625bd	0.030047292
125	0x3ca4d7dc	0.020122461
126	0x3de9e783	0.114211105
127	0x3dc18bd8	0.09450501
128	0xbdbad50b	-0.09122666
129	0x3dfeae6e	0.124356136
130	0x3dcb9024	0.09939602
131	0x3d846f44	0.06466535
132	0xbd4e9c37	-0.050441947
133	0x3d42bb03	0.04754163
134	0x3d6ef1c0	0.05833602
135	0x3db853b2	0.090003386
136	0xbd4469bf	-0.04795241
137	0xbdc74e02	-0.09731676
138	0x3d90b741	0.07066203
139	0xbcfe7c57	-0.03106515
140	0x3d9ebc18	0.0775072
141	0x3d2d1426	0.042255543
142	0xbad7d865	-0.0016467689
143	0xbd858d48	-0.06521088
144	0x3e020ba7	0.12699758
145	0xbda56d3d	-0.08077476
146	0x3bb5c4a1	0.0055471216
147	0x3dc2f67b	0.09519669
148	0xbdaa4462	-0.08313824
149	0x3dc6668c	0.09687528
150	0xbd12eb5c	-0.035868987
151	0x3e19ee33	0.15032272
152	0xbc958a9c	-0.01825457
153	0x3d8dfd3b	0.069330655
154	0x3c2aa440	0.010415137
155	0x3deeebd8	0.116660774
156	0xbc93b205	-0.018029222
157	0xbc992697	-0.018695159
158	0x3d3807d8	0.044929355
159	0x3c20fb79	0.009825581
160	0x3d42ede0	0.047590137
161	0xbb9f8fe9	-0.0048694503
162	0x3dc23233	0.09482231
163	0x3c2350f8	0.009968035
164	0xbd98b913	-0.07457175
165	0xbc8635f0	-0.016383141
166	0x3da12bd9	0.078696914
167	0x3dca86b0	0.09888971
168	0x3d2c7bff	0.04211044
169	0xbd9e6e7d	-0.07735918
170	0xbcc64841	-0.024204375
171	0x3daa547b	0.083168946
172	0x3e014d1e	0.12627074
173	0xbd8d01d2	-0.06885113
174	0x3cb552f9	0.022134291
175	0x3d942246	0.072331
176	0xbd777dbb	-0.06042264
177	0xbdb4fc12	-0.08837141
178	0x3e0c8e68	0.13726199
179	0x3e0ed424	0.13948113
180	0x3ddbe9a1	0.107379206
181	0x3de6617a	0.11249061
182	0xbd8f7179	-0.07004065
183	0xbd452219	-0.04812822
184	0x3dd3f0da	0.10348673
185	0xbd0b5373	-0.03401513
186	0xbd87ac97	-0.06624716
187	0xbc746291	-0.014916078
188	0xbd33187a	-0.043724515
189	0xbc21d3b6	-0.009877136
190	0x3df75ad6	0.120778725
191	0x3d7b49d3	0.0613497
192	0x3d08a36c	0.033358976
193	0x3df3e0d5	0.11908118
194	0xbb07a50c	-0.002069774
195	0xbc57cfe4	-0.013172124
196	0xbcd68e69	-0.026190953
197	0x3b892607	0.0041854414
198	0xbcc3efdf	-0.02391809
199	0xbd987ee7	-0.0744608
200	0x3dab6f77	0.083708696
201	0xbcc6dd25	-0.024275372
202	0x3d35dde1	0.044401053
203	0x3db2d490	0.08731949
204	0x3e06bb20	0.1315732
205	0x3dde6233	0.10858574
206	0xbdb1ba7d	-0.08678148
207	0x3e138412	0.1440585
208	0xbd97eb3e	-0.07417916
209	0xbe12c570	-0.14333129
210	0x3b384a85	0.002812059
211	0x3cb37958	0.021908447
212	0xbccac0de	-0.02475017
213	0xbdd88fdc	-0.10574314
214	0xbbb0659e	-0.0053832075
215	0x3d858145	0.06518797
216	0x3da37d12	0.0798284
217	0x3d8802a8	0.06641132
218	0x3daaf009	0.08346564
219	0xbad5f1df	-0.0016322694
220	0xbd0df3c5	-0.034656305
221	0xbd4cef58	-0.050032943
222	0xbd064381	-0.03277922
223	0xbdc00f21	-0.093778856
224	0xbde96e63	-0.11398008
225	0xba4cd159	-0.00078131777
226	0x3d93f920	0.07225251
227	0x398a3dc8	0.00026367442
228	0xbd19d011	-0.037551943
229	0xbd40d25e	-0.04707562
230	0x3c2fc9cf	0.010729267
231	0x3d25a3ce	0.04043942
232	0xbd9b5b32	-0.075857535
233	0xbdc1250f	-0.094308965
234	0x3d38e369	0.04513875
235	0xbdbbf60a	-0.091777876
236	0x3cc4292f	0.02394542
237	0xbe050c4b	-0.1299297
238	0x3deddbfd	0.11614225
239	0x3da7b92c	0.081896156
240	0x3e13e6f8	0.14443576
241	0x3d525cca	0.05135802
242	0xbd56dcd9	-0.05245671
243	0x3e014587	0.12624179
244	0x3d8efd17	0.06981867
245	0xbe01ef1c	-0.12688869
246	0xbd801a62	-0.06255032
247	0x3d4fe668	0.050756842
248	0xbe0d3578	-0.13789928
249	0x3c2cdb5e	0.010550348
250	0x3cc16889	0.023609417
251	0x3dedf15a	0.116183
252	0xbd40beb4	-0.04705687
253	0x3d990593	0.07471766
254	0x3c41ec06	0.0118360575
255	0x3d9ef3a7	0.07761317

lstm.weight_hh_l0 f4 [256, 64]
0	0x3e05b63f	0.13057803
1	0xbe0b7e22	-0.13622335
2	0xbda84bcf	-0.08217584
3	0x3cfc6e3a	0.030814279
4	0xbccdc4dc	-0.025118284
5	0x3c0d0ea4	0.008609448
6	0xbdd8f1d4	-0.10593
7	0xbdde3e39	-0.10851712
8	0xbcc25f75	-0.023727158
9	0xbdafedd7	-0.08590286
10	0xbd01c02e	-0.031677417
11	0xbcc01f33	-0.023452377
12	0xbc375304	-0.011189226
13	0x3caabb29	0.020841198
14	0xbd349b62	-0.044093497
15	0x3c6e09d6	0.014528712
16	0xbc984c88	-0.01859118
17	0x3d7496e3	0.05971421
18	0x3cad91d4	0.0211877
19	0x3df24740	0.11829996
20	0x3df252b4	0.118321806
21	0x3df7d89c	0.12101862
22	0x3cc162fd	0.023606772
23	0xbdded3c5	-0.108802356
24	0x3e01c42f	0.12672494
25	0xbd39d1a8	-0.04536596
26	0x3dbcf2b2	0.09225978
27	0xbdb743a5	-0.08948449
28	0xbbe21ab9	-0.0069001582
29	0xbbb2bf61	-0.005454943
30	0xbd08d0fd	-0.03340243
31	0x3c5a1f59	0.013313138
32	0x3de57cd8	0.11205453
33	0xbcf3d3c9	-0.029764073
34	0xbcc65121	-0.024208607
35	0x3d317614	0.0433255
36	0x3dbd7c9e	0.092522845
37	0xbd7068cd	-0.058693696
38	0x3d127a0d	0.035760928
39	0xbd9bbe9d	-0.07604716
40	0xbcfc950f	-0.030832795
41	0xbdfc1b61	-0.123099096
42	0x3d5ece72	0.0543961
43	0x3dd9cb36	0.106344625
44	0x3cd81437	0.026376827
45	0x3c86c6c2	0.016452197
46	0xbd01a4df	-0.031651374
47	0x3dc8fded	0.098140575
48	0xbda2b3b7	-0.07944434
49	0xbd9e5aa3	-0.07732131
50	0x3da48b49	0.08034379
51	0x3d9e2f16	0.07723825
52	0xbd71c109	-0.059021983
53	0xbe114766	-0.14187393
54	0x3d2d88c9	0.042366777
55	0x3dd2a733	0.10285797
56	0x3dac177d	0.084029175
57	0xbd996403	-0.07489779
58	0x3d3c9c12	0.046047278
59	0x3cb4d5e4	0.022074647
60	0xbd2ae046	-0.04171779
61	0x3d7c2734	0.061560825
62	0x3e05e6e0	0.13076353
63	0x3caf9952	0.021435414
64	0xbdeeaeb6	-0.11654417
65	0x3d90674d	0.07050953
66	0xbc53d486	-0.0129290875
67	0x3d78ca4f	0.06073981
68	0xbc94ef4a	-0.018180508
69	0x3d1c7052	0.038193054
70	0x3e081e00	0.13292694
71	0xbdd76ffd	-0.10519407
72	0xbb83c0d8	-0.0040207915
73	0x3db35361	0.08756138
74	0xbb574488	-0.0032847244
75	0x3bee3fb8	0.0072707795
76	0x3d9cfd56	0.076655075
77	0x3d6f2d95	0.05839308
78	0xbd8a2a5c	-0.06746361
79	0xbdf667fe	-0.12031554
80	0xbdaa2fe3	-0.08309915
81	0x3c49c7d8	0.012315713
82	0xbc8afe45	-0.016966948
83	0xbd6cbcd7	-0.05779728
84	0xbc657c08	-0.014006622
85	0x3d82a853	0.063797615
86	0xbda2c74c	-0.07948169
87	0xbd87fd14	-0.06640068
88	0xbdb589b0	-0.088641524
89	0xbe0361ae	-0.1283023
90	0xbd67f766	-0.056632422
91	0x3d873d4c	0.06603488
92	0xbd837bb4	-0.06420079
93	0xbdefd9e7	-0.117114834
94	0xbdedd533	-0.1161293
95	0xbd8bf3db	-0.06833621
96	0x3b2e2231	0.0026570673
97	0x3df15df0	0.11785495
98	0x3c2d274a	0.010568449
99	0x3d75d905	0.06002142
100	0x3dc82d7b	0.097743
101	0x3d631bc1	0.05544639
102	0x3d7137a3	0.05889095
103	0xbdcd25db	-0.10016986
104	0x3c49b1e2	0.012310477
105	0x3d4c1ec3	0.049834024
106	0x3d5ca3d6	0.053867184
107	0x3d3f0b22	0.046641476
108	0x3db0a174	0.08624545
109	0x3d8296ab	0.06376394
110	0xbdfc496e	-0.12318693
111	0xbd6f5467	-0.0584301
112	0x3d68ab89	0.056804214
113	0x3d501dcc	0.050809667
114	0xbc426c91	-0.011866705
115	0xbd852fd6	-0.065032646
116	0xbde7ca42	-0.113178745
117	0xbd51dcc1	-0.051235918
118	0x3d8e4995	0.069476284
119	0x3dbdf47e	0.09275149
120	0xbdc2f40d	-0.09519205
121	0xbdaa2f2c	-0.083097786
122	0x3c42a99b	0.011881257
123	0x3d59b784	0.05315353
124	0x3ca860c5	0.020553956
125	0xbdc6f67a	-0.097149804
126	0xbdd74557	-0.105112724
127	0xbdb0855e	-0.08619188
128	0xbdd0c4a0	-0.10193753
129	0xbd95d799	-0.073165126
130	0x3c84bef9	0.016204344
131	0xbc9a56cc	-0.018840216
132	0xbdada05e	-0.08477853
133	0x3db73b62	0.08946873
134	0xbe03b2ab	-0.12861125
135	0xbe064694	-0.13112861
136	0xbccfaf05	-0.02535201
137	0xbc1beb4a	-0.0095165465
138	0x3d0bad19	0.034100626
139	0xbe0cb894	-0.13742286
140	0x3bf7274b	0.007542526
141	0x3d3630a8	0.044479996
142	0xbdcbd99e	-0.099536166
143	0xbd9ccd91	-0.07656396
144	0xbe06774e	-0.13131449
145	0xbd8456bd	-0.064618565
146	0x3d752836	0.0598528
147	0xbdd1ae1b	-0.10238286
148	0x3da1972d	0.078901626
149	0x3da30a12	0.07960905
150	0x3dffb193	0.124850415
151	0xbc86cb31	-0.016454311
152	0x3df524ea	0.119699314
153	0xbd97d35d	-0.07413361
154	0xbdab5f6d	-0.083678104
155	0xbde58827	-0.112076096
156	0x3db4b056	0.08822696
157	0xbccdb48b	-0.025110504
158	0xbd36d24f	-0.04463416
159	0x3d12b2bf	0.035814997
160	0xbcb83d99	-0.02249031
161	0xbcb3bb35	-0.021939853
162	0xbda9898c	-0.08278188
163	0xbddb6874	-0.10713282
164	0x3c766e96	0.015041014
165	0x3c48444f	0.012223317
166	0x3dd22968	0.10261804
167	0xbdb83d4b	-0.08996066
168	0x3dda0435	0.10645334
169	0xbd34ee00	-0.044172287
170	0x3c94a8e7	0.018146945
171	0xbd2e8e4f	-0.042616185
172	0xbd0109f5	-0.031503636
173	0xbda31e9d	-0.079648234
174	0xbd9b5dc8	-0.07586247
175	0xbdc19688	-0.0945254
176	0xbd8cdfca	-0.06878622
177	0x3ca76348	0.020433083
178	0xbc694d2d	-0.014239592
179	0xbbe45879	-0.0069685546
180	0xbdd2b17b	-0.10287758
181	0xbd3efb6c	-0.046626493
182	0xbdf897fc	-0.12138364
183	0x3d552e77	0.052046265
184	0xbd638d01	-0.055554394
185	0xbc998fb7	-0.018745286
186	0xbd1844ea	-0.037175097
187	0x3da7b55d	0.08188889
188	0x3d0e24c6	0.03470304
189	0x3d7f917e	0.06239461
190	0xbd92aebd	-0.07162235
191	0x3c30b94b	0.010786365
192	0x3deb4061	0.11486889
193	0x3db2e82d	0.0873569
194	0x3d13bd58	0.036069244
195	0xbe05b385	-0.13056763
196	0xbdad52b5	-0.08463041
197	0xbdd7d1ff	-0.105381005
198	0x3cbb835a	0.022889782
199	0x3ca1c7ad	0.019748533
200	0xbdba57ff	-0.09098815
201	0x3d80f495	0.0629665
202	0xbd999ce2	-0.07500626
203	0x3d80fd6a	0.06298335
204	0x3de3aee5	0.11117343
205	0xbdc8ff82	-0.09814359
206	0xbde67cc3	-0.11254265
207	0x3b4ee8ac	0.0031571789
208	0x3db7b3a0	0.089698076
209	0x3db85fc5	0.090026416
210	0x3c8919ba	0.0167359
211	0x3c5a4137	0.0133212125
212	0x3d9e5f83	0.07733061
213	0x3dbb1b7b	0.09136101
214	0x3e1a9d7e	0.15099141
215	0x3c995571	0.0187175
216	0xbab0980b	-0.0013473047
217	0x3d843abc	0.06456515
218	0x3e0f7e9b	0.1401314
219	0x3cec9a2e	0.028882112
220	0xbd68b34e	-0.056811623
221	0x3d650502	0.05591298
222	0x3d81f78b	0.06346043
223	0x3d823407	0.0635758
224	0xbc0662ab	-0.008202235
225	0x3c8ca76e	0.01716968
226	0x3c666512	0.014062183
227	0x3ca72d21	0.020407261
228	0x3df60094	0.12011829
229	0xbdf35105	-0.118806876
230	0x3d9b1914	0.07573143
231	0xbd9d6346	-0.076849505
232	0xbdf041fa	-0.11731334
233	0x3c0ab512	0.008466022
234	0x3d9eac97	0.07747763
235	0x3df5d4fb	0.120035134
236	0x3cf195a6	0.029490303
237	0xbdba4d62	-0.09096791
238	0xbdc08575	-0.09400455
239	0x3dfcedb1	0.123500235
240	0xbd98078a	-0.07423313
241	0xbd59ad44	-0.053143755
242	0x3e03112d	0.12799521
243	0x3da92f03	0.0826092
244	0xbd251c5b	-0.040310245
245	0x3d811ece	0.06304704
246	0xbd874c6b	-0.066063724
247	0x3df52886	0.1197062
248	0x3e1d6a8e	0.15372679
249	0x3d8395fb	0.06425091
250	0x3d9ddec4	0.07708505
251	0xbbe1e663	-0.0068939193
252	0x3dec0637	0.11524623
253	0xbda1bd0d	-0.07897387
254	0xbd91b368	-0.07114297
255	0xbdb56a67	-0.08858185

lstm.bias_ih_l0 f4 [256]
0	0x3ca54fac	0.020179592
1	0xbcb4e763	-0.02208299
2	0x3de86543	0.11347439
3	0xbd6f66ef	-0.058447774
4	0xbc37a55a	-0.0112088565
5	0x3c0e0e37	0.008670381
6	0xbdb79df1	-0.08965672
7	0x3c959385	0.01825882
8	0xbd933a38	-0.07188839
9	0x3c85d1aa	0.016335327
10	0xbd1c3036	-0.038131915
11	0xbd3f6279	-0.04672477
12	0xbd80bab9	-0.062856145
13	0xbda23e0d	-0.079219915
14	0x3d10ebdb	0.03538118
15	0xbd6d4f7f	-0.05793714
16	0xbd91a12c	-0.07110819
17	0xbc65d425	-0.01402763
18	0x3d94f7e7	0.07273846
19	0x3de1e234	0.11029473
20	0x3ccf426b	0.025300225
21	0x3dd8fbe1	0.10594917
22	0x3de55678	0.11198133
23	0xbd8b59a1	-0.06804205
24	0x3e1a28e5	0.15054663
25	0x3cdde5d7	0.027087135
26	0x3dd0d2cc	0.10196456
27	0x3e0bf21a	0.13666573
28	0x3dad64e2	0.084665075
29	0xbd820504	-0.06348613
30	0xbe003fcb	-0.12524335
31	0x3dc669d8	0.09688157
32	0xbbc15fe2	-0.0059013227
33	0x3cbe158f	0.02320364
34	0x3defbb10	0.11705601
35	0x3c63b9cb	0.013899277
36	0x3d99a797	0.07502668
37	0xbdbac52e	-0.0911964
38	0xbd00afc6	-0.03141763
39	0xbcb9874d	-0.022647524
40	0xbd966e22	-0.07345225
41	0x3d8e2248	0.069401324
42	0xbc9a33f5	-0.018823603
43	0x3da9fc9f	0.08300137
44	0x3d178614	0.0369931
45	0x3cb0cb19	0.02158122
46	0x3af4bb0b	0.0018671466
47	0x3debb77b	0.115096055
48	0x3c4d5119	0.012531542
49	0xbddc10ca	-0.1074539
50	0x3cd83ecf	0.026397137
51	0xbd5a0a73	-0.05323262
52	0xbd43e393	-0.047824454
53	0x3c1f258f	0.0097135445
54	0xbd9ead1c	-0.07747862
55	0x3e0cc07c	0.13745302
56	0x3cfcda3f	0.030865787
57	0xbdab2d24	-0.08358219
58	0xbd916648	-0.07099587
59	0xbd7c3adf	-0.06157958
60	0x3db6282f	0.08894383
61	0x3dc490ec	0.09597954
62	0x3c0662cb	0.008202265
63	0xbe0ae5d2	-0.13564232
64	0xbda9a797	-0.08283918
65	0xbd23c9d1	-0.03998739
66	0xbd08d3fa	-0.03340528
67	0x3e0c0f9e	0.13677832
68	0x3cef2073	0.029190278
69	0x3ddefea2	0.10888411
70	0x3c2caf50	0.010539845
71	0x3df5c22f	0.11999928
72	0xbca9c830	-0.02072534
73	0xbc633246	-0.013866967
74	0x3da3a011	0.079895146
75	0xbc5a6df1	-0.013331876
76	0x3d6509d2	0.05591757
77	0xbd5fd9c7	-0.054651048
78	0x3e030295	0.12793954
79	0xbdc63238	-0.09677547
80	0x3c99b7b1	0.018764349
81	0x3c12bfbf	0.008956849
82	0x3de47bc7	0.11156421
83	0xbc5c6064	-0.013450716
84	0xbd96b731	-0.0735916
85	0x3ba97885	0.0051718378
86	0x3c005d6c	0.0078347735
87	0x3d85cda2	0.06533362
88	0xbd2af790	-0.04174
89	0xbd2358ef	-0.039879736
90	0x3da237e6	0.07920818
91	0xbc976ac1	-0.018483521
92	0x3d362d94	0.04447706
93	0x3c904ec7	0.017615689
94	0xbd71568d	-0.058920432
95	0x3dbea823	0.09309413
96	0x3d9321ef	0.07184207
97	0xbd9e3baf	-0.077262275
98	0x3d9e6b4f	0.07735311
99	0xbbe72df5	-0.007055039
100	0x3ca1d688	0.019755617
101	0xbd2e52fb	-0.042559605
102	0x3d8a0a0d	0.06740198
103	0x3db35fb2	0.08758487
104	0xbdb57b1d	-0.088613726
105	0xbd920398	-0.07129592
106	0x3de2b2f2	0.11069287
107	0x3c362275	0.011116614
108	0x3d027533	0.03185005
109	0xbce80e32	-0.028327081
110	0x3e0a713d	0.1351976
111	0x3b721aee	0.003694232
112	0x3d437cc6	0.047726415
113	0x3e107b4b	0.14109533
114	0xbd37e09e	-0.044891946
115	0x3dd63800	0.104599
116	0xbda7648e	-0.08173476
117	0x3d4d8072	0.050171323
118	0xbdb5d735	-0.08878938
119	0x3dc608e0	0.096696615
120	0xbcf7fad9	-0.03027098
121	0x3d83abd6	0.064292595
122	0x3d05e1ae	0.032685928
123	0x3e028980	0.12747765
124	0xbda3a769	-0.07990915
125	0xbd55ad2f	-0.052167114
126	0x3e12e4d2	0.143451
127	0x3c8af2b5	0.016961435
128	0x3d8e3fe8	0.06945783
129	0x3db5b269	0.0887192
130	0x3d21fb88	0.03954652
131	0xbbe6474e	-0.007027543
132	0xbc86af53	-0.016441023
133	0xbcf35309	-0.02970268
134	0xbdcf6050	-0.10125792
135	0x3d93db77	0.07219594
136	0x3d085120	0.03328049
137	0xbd90847c	-0.070565194
138	0xbc8f240d	-0.017473245
139	0xbce19a36	-0.027539354
140	0xbd1d0938	-0.03833887
141	0xbc1af0f4	-0.009456862
142	0xbdf1243d	-0.1177449
143	0xbdbe1c96	-0.09282796
144	0xbd321c32	-0.04348392
145	0x3e0471ce	0.12934038
146	0xbdb82bc0	-0.0899272
147	0x3d5d376f	0.054007944
148	0x3df93b97	0.12169569
149	0x3dde69f9	0.108600564
150	0x3d49b804	0.049247757
151	0xbd289caa	-0.04116503
152	0x3e1ef1f2	0.15521982
153	0x3b807fa6	0.003921467
154	0xbc1e8b44	-0.009676758
155	0xbda85c08	-0.082206786
156	0xbd19e0f4	-0.037568048
157	0xbe0a3aa8	-0.13498938
158	0x3dcabedd	0.098996855
159	0xbdfdb9da	-0.12388964
160	0x3ca01622	0.019541804
161	0x3d346244	0.044039026
162	0x3c93978c	0.0180166
163	0xbbcd104f	-0.0062580477
164	0xbc11daab	-0.008902232
165	0xbc9fb336	-0.019494634
166	0xbdb082bd	-0.08618686
167	0x3e0272d5	0.12739117
168	0xbc1d4893	-0.009599823
169	0xbe119975	-0.14218695
170	0x3e160a41	0.14652349
171	0x3d528f18	0.051405996
172	0x3ddf87e8	0.10914594
173	0x3c4b346d	0.012402636
174	0x3cc3e5c5	0.023913274
175	0xbc8d9081	-0.017280819
176	0xbdb50239	-0.088383146
177	0xbe05dd98	-0.13072813
178	0x3d9b3f14	0.075803906
179	0xbdf39387	-0.11893373
180	0xbe151da3	-0.14562087
181	0xbd90dc7a	-0.070733026
182	0xbe05cace	-0.13065645
183	0xbbbee250	-0.0058253184
184	0x3e0c7033	0.13714676
185	0x3d23a2e5	0.03995027
186	0xbd1cc9bc	-0.038278326
187	0xbc9d2bf5	-0.019186
188	0xbc33f5ba	-0.010983879
189	0xbc99a42f	-0.018755047
190	0x3e091e03	0.13390355
191	0xbd856679	-0.06513686
192	0xbd2f32ca	-0.042773046
193	0xbda88293	-0.0822803
194	0xbdb55dcf	-0.08855783
195	0xbb96fdab	-0.0046078763
196	0xbd77f748	-0.06053856
197	0x3d1e4348	0.038638383
198	0x3daa600f	0.08319103
199	0x3c5945d7	0.01326128
200	0x3c8bd629	0.017069893
201	0x3cedc8a4	0.029026337
202	0xbd86a6db	-0.06574794
203	0x3d496822	0.049171574
204	0x3d6b5baa	0.057460465
205	0x3d97e5e1	0.07416893
206	0xbc8c6c8d	-0.017141605
207	0x3db4c925	0.08827428
208	0xbc00a87f	-0.007852673
209	0xbbaeb92b	-0.0053321323
210	0x3dc5d0b1	0.09658945
211	0xbc960047	-0.01831068
212	0x3d7c685b	0.06162296
213	0x3dc41147	0.09573608
214	0x3d200e13	0.039075922
215	0xbce208e3	-0.027592128
216	0xbdbfa247	-0.09357124
217	0xbc89437f	-0.016755817
218	0xbd0319c8	-0.03200701
219	0xbcb977fe	-0.022640225
220	0x3dfb122b	0.12259325
221	0xbb99e535	-0.004696513
222	0xbe015686	-0.12630662
223	0xbd52102b	-0.05128495
224	0x3d94ffde	0.07275365
225	0x3e1c73df	0.15278576
226	0x3cbcb081	0.023033382
227	0x3dbd2a85	0.092366256
228	0x3c5243f0	0.01283358
229	0x3d83738e	0.06418525
230	0xbdb3d7ee	-0.0878142
231	0xbd950810	-0.072769284
232	0xbb92aa09	-0.004475836
233	0x3ccbc67e	0.024874922
234	0xbbf0c01e	-0.007347121
235	0x3d15fd71	0.036618654
236	0x3def66b9	0.11689515
237	0x3d9717d8	0.07377595
238	0xbd291662	-0.04128111
239	0xbd77a4aa	-0.06045977
240	0xbd867746	-0.06565718
241	0x3d020169	0.031739626
242	0x3bd5cd8e	0.006524748
243	0xbdc0ba18	-0.094104946
244	0x3dccce09	0.100002356
245	0x3d9d9b55	0.07695643
246	0xbcf0821c	-0.029358916
247	0x3ceebe58	0.029143497
248	0xbd902126	-0.070375726
249	0x3dddc2c0	0.10828161
250	0x3d728afd	0.05921458
251	0x3d1f8796	0.038947664
252	0xbc350359	-0.011048161
253	0xbd6de70f	-0.058081683
254	0xbd8a24a3	-0.06745269
255	0x3d3fd65a	0.04683528

lstm.bias_hh_l0 f4 [256]
0	0x3e1682be	0.14698312
1	0x3bdd7c29	0.006759186
2	0xbd3e817f	-0.046510216
3	0xbced0bd6	-0.028936308
4	0x3d82df22	0.063902155
5	0x3dc9986a	0.09843524
6	0xbd5b360e	-0.053518347
7	0xbd40a3d6	-0.047031246
8	0x3d3987d1	0.04529554
9	0xbce89af4	-0.0283942
10	0x3d4a069e	0.049322717
11	0xbd63ef03	-0.05564786
12	0x3e16ced1	0.14727332
13	0x3d6725b3	0.056432437
14	0x3d69405b	0.05694614
15	0x3deb280a	0.11482246
16	0x3cc08606	0.023501407
17	0x3dd6ab53	0.10481896
18	0x3cb458bf	0.022014974
19	0xbd876a35	-0.06612054
20	0x3e143f3e	0.1447725
21	0x3da9dc2d	0.08293948
22	0xbd837b9d	-0.06420062
23	0xbdc0b414	-0.09409347
24	0x3d7dcf3e	0.06196522
25	0xbd0dde19	-0.034635637
26	0xbdbd7d40	-0.09252405
27	0xbd7337a6	-0.059379242
28	0x3da1d00a	0.079010084
29	0xbc38fc56	-0.01129063
30	0xbd40bb69	-0.04705373
31	0xbc4e62e0	-0.012596816
32	0xbcaa7edc	-0.020812444
33	0x3de75057	0.112946205
34	0x3d908e86	0.07058434
35	0xbd808cbc	-0.06276843
36	0x3d9c40f0	0.07629573
37	0xbd076829	-0.03305832
38	0x3db50ad7	0.08839958
39	0xbd8ade4e	-0.067806825
40	0xbddd22ec	-0.107976764
41	0xbd9d75fd	-0.0768852
42	0xbc093b12	-0.0083759
43	0xbd6fe496	-0.058567606
44	0x3d6fada6	0.058515213
45	0xbdbba19c	-0.09161684
46	0x3df48563	0.11939504
47	0x3b8d52b6	0.0043128384
48	0x3ddc785f	0.107651465
49	0xbdca9021	-0.09890772
50	0xbcc79a3d	-0.024365539
51	0xbcf5b026	-0.02999122
52	0x3c38b2a6	0.011273062
53	0x3dadbab3	0.08482876
54	0x3d9c7685	0.07639793
55	0x3d595651	0.053060833
56	0xbc46d667	-0.012136078
57	0x3dc8f018	0.09811419
58	0x3df7eba3	0.12105491
59	0xbcfaa9af	-0.03059849
60	0xbde4a110	-0.11163533
61	0xbd8db389	-0.06919009
62	0x3e009dcb	0.12560193
63	0x3db608f5	0.08888427
64	0x3da8728a	0.082249716
65	0xbce5082e	-0.027958002
66	0xbcf507f8	-0.029911026
67	0xbd4f4db4	-0.050611213
68	0xbdb224d7	-0.08698433
69	0xbdb57535	-0.08860246
70	0xbdfe782c	-0.12425265
71	0x3da603c2	0.081061855
72	0x3dea9aa1	0.114552744
73	0xbd61fbda	-0.055171825
74	0x3db37332	0.08762206
75	0x3d2d6615	0.04233368
76	0x3db2e165	0.08734397
77	0xbd7b9a16	-0.061426245
78	0x3dee636b	0.11640056
79	0xbc1c9cda	-0.009558881
80	0x3d5b8aff	0.053599354
81	0x3d789d78	0.06069705
82	0x3d3ae11a	0.04562483
83	0x3e16d527	0.14729749
84	0xbccf8e13	-0.025336301
85	0xbcf87d7c	-0.030333273
86	0xbd97737e	-0.07395075
87	0xbd40fc99	-0.047115896
88	0xbcb94084	-0.022613771
89	0x39a98158	0.0003233056
90	0x3dd934a1	0.10605741
91	0x3ce8876c	0.028384887
92	0xbbadca50	-0.0053036585
93	0x3da9af91	0.0828544
94	0xbd817b2c	-0.06322321
95	0x3d3111df	0.043229934
96	0x3dea4f3a	0.114408925
97	0x3d8e550e	0.06949817
98	0xbca1961a	-0.019724894
99	0xbd9138cc	-0.07090911
100	0x3dcba21f	0.099430315
101	0x3cc966a8	0.024585083
102	0x3e0bae45	0.13640697
103	0xb7befab0	-2.27665e-05
104	0xbdfb4fec	-0.12271103
105	0xbdcd4085	-0.10022072
106	0x3d2c50a3	0.04206909
107	0x3ca67f0f	0.020324258
108	0x3d86491f	0.065569155
109	0x3e03ce9c	0.12871784
110	0x3e02ebde	0.12785289
111	0x3dd3ba10	0.10338223
112	0x3deccc0c	0.11562356
113	0x3dda8a92	0.106709614
114	0xbd915a55	-0.070973076
115	0x3bd9d3c0	0.006647557
116	0x3d5c82ea	0.053835787
117	0x3cf73cd1	0.030180367
118	0x3dd6e059	0.1049201
119	0xbdc94f03	-0.098295234
120	0x3b8910b4	0.0041828994
121	0x3de76e63	0.113003515
122	0x3dc2d673	0.09513559
123	0x3e1ef433	0.15522842
124	0xbdcab2a1	-0.09897352
125	0x3df5a4e1	0.11994339
126	0x3dc92166	0.09820823
127	0x3c939acf	0.018018154
128	0xbda15c13	-0.0787889
129	0xbbf4e0b5	-0.007473076
130	0xbddd7d96	-0.10814969
131	0xbda3dcff	-0.08001136
132	0xbd98a399	-0.07453079
133	0x3bad1ae2	0.0052827457
134	0x3d4e6a06	0.05039408
135	0x3d79210d	0.060822535
136	0xbd12e4d7	-0.03586277
137	0xbd976b5a	-0.073935226
138	0x3c5ec3a6	0.013596451
139	0x3c2bc130	0.010483071
140	0x3d7e0a23	0.062021386
141	0xbe0d9a74	-0.1382845
142	0x3dc1c379	0.094611116
143	0x3ca93b54	0.020658173
144	0xbd3faa72	-0.04679341
145	0x3e05ac00	0.13053894
146	0x3d02f415	0.031971056
147	0x3d94379e	0.07237171
148	0x3dfa409f	0.12219357
149	0xbd4536f1	-0.0481481
150	0x3d75c9b1	0.0600068
151	0x3dd466ff	0.103712074
152	0x3d05c3af	0.03265732
153	0x3d960172	0.073244944
154	0x3df6daf3	0.1205348
155	0x3d42fb22	0.04760278
156	0xbe184386	-0.14869508
157	0xbd20bdba	-0.039243437
158	0x3b9030dd	0.004400356
159	0xbdec46c4	-0.11536935
160	0x3dd53828	0.104111016
161	0xbcee99df	-0.029126106
162	0x3d95b019	0.073089786
163	0xbd1b83eb	-0.037967604
164	0x3d71db6d	0.05904715
165	0xbd8f3af4	-0.06993666
166	0x3ceb7d64	0.028746314
167	0x3d0871b6	0.03331157
168	0x3d8c54bb	0.068520986
169	0x3daff546	0.08591704
170	0xbcf63e23	-0.030058926
171	0x3dc090b3	0.09402599
172	0x3c26e470	0.0101863
173	0xbdc26262	-0.09491421
174	0xbc25b65d	-0.01011428
175	0x3d7ff71a	0.062491514
176	0x3d887f82	0.06664945
177	0x3be8a575	0.007099802
178	0x3dad9bee	0.08477007
179	0x3c1ec9d5	0.009691675
180	0xbdd0039d	-0.10156939
181	0xbd0d59ff	-0.034509655
182	0xbe0f6ba7	-0.1400591
183	0xbd05ad80	-0.032636166
184	0x3dd94312	0.10608496
185	0xbdc5bf75	-0.09655658
186	0xbc08a51e	-0.008340148
187	0xbcb31a4d	-0.021863127
188	0xbd408161	-0.046998385
189	0x3dfe6bbc	0.124228925
190	0x3c721923	0.014776501
191	0x3d61d599	0.055135343
192	0xbd428d12	-0.047497816
193	0x3dc9a8a7	0.09846621
194	0x3d6b801a	0.057495214
195	0x3dc85e2f	0.09783589
196	0x3d194847	0.037422445
197	0x3bda029c	0.006653143
198	0xbcb04163	-0.021515554
199	0x3c60be88	0.013717301
200	0x3dc48e9e	0.095975146
201	0x3dda7d35	0.106684126
202	0x3d74e453	0.05978806
203	0xbc966f0a	-0.018363494
204	0x3d01c52d	0.031682182
205	0x3d8ac047	0.06774955
206	0x3dc3ecd9	0.095666595
207	0x3cffbe53	0.031218683
208	0x3cbbe4b7	0.022936208
209	0x3e032278	0.12806118
210	0x3c7e1ce7	0.015509821
211	0x3d8e55cc	0.06949958
212	0x3e1541ee	0.14575931
213	0x3dbe3cd3	0.09288945
214	0xbd01ae28	-0.03166023
215	0x3ac9b134	0.0015387894
216	0x3c16dec7	0.009208388
217	0x3d837537	0.06418841
218	0x3dc2e8de	0.09517072
219	0xbd5735f1	-0.052541677
220	0xbd1ca9f5	-0.03824802
221	0xbb757e0d	-0.0037459165
222	0xbd85b4ea	-0.06528647
223	0x3c828989	0.015934722
224	0xbce54cbb	-0.02799069
225	0x3e0e6e8d	0.1390936
226	0xbd62b1d3	-0.055345368
227	0x3d8b2849	0.06794793
228	0x3d4f64d7	0.050633278
229	0x3e1d800c	0.15380877
230	0x3c800259	0.01562612
231	0x3d5d6b85	0.054057617
232	0x3d1413cb	0.03615169
233	0xbd0dbd15	-0.03460415
234	0xbcfb4f66	-0.030677509
235	0x3d92bbec	0.071647495
236	0x3d2fa307	0.042880084
237	0xbdb5393e	-0.08848809
238	0x3dfb30a9	0.122651406
239	0xbd3a7e60	-0.045530677
240	0xbde84ce5	-0.113427915
241	0x3c20b096	0.009807726
242	0xbd4292c9	-0.047503266
243	0xbd2f0ecc	-0.04273872
244	0x3ce01965	0.027355859
245	0xbcba8ad6	-0.02277128
246	0x3dbeb816	0.09312455
247	0x3a160f35	0.0005724312
248	0xbd8f3972	-0.06993379
249	0x3dab986a	0.0837868
250	0xbcaf1a1a	-0.02137475
251	0xbd07746c	-0.033070013
252	0xbc8bd2b1	-0.017068239
253	0xbd5a3684	-0.053274646
254	0x3e1ea5a0	0.15492868
255	0x3cfc34c9	0.030786889

fc.weight f4 [1, 64]
0	0xbddc75f9	-0.10764689
1	0x3c1d8f98	0.009616755
2	0x3d0663f1	0.032810155
3	0x3ddd6b18	0.10811442
4	0xbca46e20	-0.020072043
5	0x3d979d1a	0.074030116
6	0xbdc12503	-0.094308876
7	0x3de841d6	0.11340682
8	0x3d97488b	0.07386883
9	0x3db9e46b	0.090767704
10	0x3d7d04a1	0.061771993
11	0x3e07eef4	0.13274747
12	0xbd92dee6	-0.07171421
13	0x3e09db8b	0.13462655
14	0x3d855a0f	0.06511318
15	0x3ccba523	0.024859017
16	0x3c8cfbd5	0.017209927
17	0xbdf2a9ac	-0.118487686
18	0x3dbfe832	0.093704596
19	0xbe1345eb	-0.1438214
20	0xbdac4fa8	-0.08413631
21	0xbe0c2c21	-0.13688709
22	0xbdb513ca	-0.08841665
23	0x3d751257	0.059831943
24	0xbd786887	-0.06064656
25	0x3dd6b62d	0.10483966
26	0x3c6cb6d2	0.014447885
27	0x3d555841	0.05208612
28	0x3e19c2df	0.15015744
29	0x3da72d26	0.08162908
30	0x3dc08b11	0.09401525
31	0xbbf9b105	-0.0076199793
32	0xbd80d5a3	-0.06290748
33	0x3d43e06b	0.047821444
34	0xbe14673a	-0.14492503
35	0xbdce745c	-0.100807875
36	0x3d902226	0.07037763
37	0x3e0aae98	0.13543165
38	0xbe0e01da	-0.13867894
39	0x3ae47899	0.001743096
40	0x3da89ad2	0.08232655
41	0x3cdba18f	0.026810436
42	0xbd4634cd	-0.0483902
43	0x3dc25717	0.09489267
44	0xbda15d4c	-0.07879123
45	0x3dce1e15	0.100643314
46	0xbb53e867	-0.0032334568
47	0xbde8fbc2	-0.11376144
48	0xbdd2e864	-0.10298231
49	0x3d4814af	0.04884785
50	0xbe03e080	-0.12878609
51	0x3d092e7f	0.033491608
52	0x3d7a5d72	0.061124273
53	0xbcdd18fd	-0.026989454
54	0x3cef74cb	0.029230496
55	0x38cfbd7e	9.905825e-05
56	0xbdb8df29	-0.090269394
57	0x3d652013	0.05593879
58	0xbdb44c17	-0.088035755
59	0x3d204e9a	0.03913746
60	0x3d2b4982	0.04181815
61	0xbdaa5c31	-0.08318365
62	0xbde686c6	-0.11256175
63	0x3dcf6532	0.10126723
